models/eye_cnn.pth (torch, 613709 bytes, 8 tensors)

conv1.weight f4 [16, 1, 3, 3]
0	0x3e92e6c5	0.28691688
1	0xbe41a60b	-0.18910997
2	0xbe28dc39	-0.16490258
3	0x3cf83755	0.030299822
4	0xbeb90520	-0.36136723
5	0xbe2a6b3b	-0.16642468
6	0x3e5bbb04	0.2145806
7	0xbd88899d	-0.06666873
8	0xbe2df530	-0.16988063
9	0xbeb53295	-0.35390154
10	0x3e305413	0.17219572
11	0xbd584675	-0.052801568
12	0x3b99eae7	0.004697192
13	0xbca24eef	-0.01981303
14	0xbe21abce	-0.15788195
15	0x3e86c3bb	0.26321205
16	0xbdf8e076	-0.121521875
17	0x3e47bdd4	0.19506007
18	0x3e8440cd	0.2583069
19	0xbe1c4c68	-0.15263522
20	0x3e8c2521	0.27372077
21	0xbdf2ce70	-0.11855781
22	0xbe85b6f8	-0.26116157
23	0xbe0885c6	-0.1333228
24	0xbda85624	-0.08219555
25	0xbe7b0a5b	-0.24515669
26	0x3e0b2a4a	0.13590351
27	0x3ec89718	0.39177775
28	0xbbffa3aa	-0.0078014927
29	0x3e935da8	0.28782392
30	0x3c267cfc	0.010161635
31	0xbd68fa39	-0.056879256
32	0xbd25d5c1	-0.040487055
33	0x3cbb7379	0.02288221
34	0x3cc6c40a	0.0242634
35	0xbed44f70	-0.41466856
36	0xbe0ba651	-0.13637663
37	0x3ecd121e	0.40052885
38	0x3e9720ff	0.29517362
39	0x3d9ac7f5	0.0755767
40	0x3eb6d101	0.35706332
41	0xbe33eba5	-0.1757036
42	0xbd980641	-0.07423068
43	0x3e206802	0.15664676
44	0x3ea0fc89	0.3144267
45	0x3c711740	0.014715016
46	0x3ef1af37	0.4720399
47	0x3efb48f8	0.49079108
48	0xbda47d06	-0.08031659
49	0xbe34061a	-0.17580453
50	0x3ecebdec	0.40379274
51	0xbee85c0a	-0.4538272
52	0xbdf4375a	-0.1192462
53	0x3bf4c32f	0.0074695568
54	0xbd5cc1c3	-0.053895723
55	0xbeb7f77b	-0.35931
56	0xbe5fdf7d	-0.21862598
57	0x3d0b06f7	0.03394219
58	0xbc740f2c	-0.014896195
59	0x3cab97f7	0.020946486
60	0xbe5181fa	-0.20459738
61	0x3ed8aef7	0.42320988
62	0x3eb1063e	0.34575075
63	0xbd87b84d	-0.066269495
64	0x3e4a7af3	0.19773464
65	0x3e893019	0.26794508
66	0x3e4a0903	0.1973
67	0xbe4e108e	-0.20123503
68	0x3eb35838	0.35028243
69	0xbe1592c5	-0.1460677
70	0x3e917432	0.28408962
71	0x3caf2430	0.02137956
72	0xbed69b34	-0.41915286
73	0xbe9821ca	-0.2971328
74	0xbdde643f	-0.10858964
75	0x3ecd5cae	0.4010977
76	0x3e5604df	0.20900296
77	0xbecda49e	-0.40164655
78	0x3e99c0b6	0.3002984
79	0x3c36d619	0.011159443
80	0x3d572e9c	0.052534685
81	0xbc22de88	-0.009940751
82	0xbd904cc1	-0.0704589
83	0x3cc75f35	0.02433739
84	0x3dd305b9	0.10303826
85	0xbb57089c	-0.0032811528
86	0x3e75a128	0.23987257
87	0x3eb3afc1	0.35095027
88	0xbcc5b362	-0.024133388
89	0x3d02b71c	0.031912908
90	0xbf1b64c4	-0.6070063
91	0x3e169a33	0.1470726
92	0xbbf2a49d	-0.0074048773
93	0xbeb8cb51	-0.36092618
94	0xbe73d039	-0.238099
95	0x3e8da9a9	0.27668503
96	0x3ba187b7	0.0049295085
97	0x3e190948	0.14944947
98	0x3e972705	0.29521957
99	0xbebeb770	-0.37249327
100	0xbed2a183	-0.4113885
101	0xbea93be5	-0.33053508
102	0x3e826d99	0.2547424
103	0xbdb4107d	-0.087922074
104	0xbe92f202	-0.28700262
105	0x3db93e22	0.09045054
106	0xbe0ed4b2	-0.13948324
107	0x3e0edfb3	0.13952522
108	0xbd8223bf	-0.06354474
109	0x3d4fd897	0.050743666
110	0x3e9824f3	0.2971569
111	0x3e86de5d	0.26341525
112	0xbdf34b19	-0.11879558
113	0x3e518da2	0.20464185
114	0x3de4bf57	0.11169308
115	0x3e51ed8d	0.20500775
116	0xbe3cdbf4	-0.1844328
117	0xbc0e32d3	-0.00867911
118	0xbeb11779	-0.3458822
119	0x3d8d4df2	0.068996325
120	0xbea00bf3	-0.31259117
121	0xbeefb778	-0.46819663
122	0xbe6d907f	-0.23199652
123	0xbdccd5c6	-0.100017115
124	0x3e953b80	0.29146957
125	0x3eed3221	0.46327308
126	0x3ed20c16	0.41024846
127	0x3e03feed	0.12890215
128	0x3ea6e21f	0.32594392
129	0x3eae1abd	0.34004775
130	0xbe00e20e	-0.12586233
131	0xbda871e7	-0.0822485
132	0x3dd3742f	0.10324895
133	0x3d60f4f4	0.054921106
134	0xbe630ca7	-0.22172795
135	0x3e7e0cd0	0.24809575
136	0xbe114b48	-0.14188874
137	0x3e749b48	0.2388736
138	0x3ec1b86c	0.37836015
139	0x3e093721	0.13399936
140	0x3d7ea986	0.06217339
141	0xbe1f1f2e	-0.15539238
142	0xbd100c22	-0.03516782
143	0xbdc114c3	-0.09427788

conv1.bias f4 [16]
0	0x3e6294ce	0.22127077
1	0x3c185494	0.009297509
2	0xbe5c6688	-0.21523488
3	0xbcd7cf49	-0.026343958
4	0xbe49d1c9	-0.19708933
5	0xbdcbe0c8	-0.09954983
6	0x3c3a15a8	0.011357702
7	0x3df69921	0.12040926
8	0x3de8f50f	0.11374866
9	0xbedb0b57	-0.4278209
10	0x3e1ca5f1	0.15297677
11	0x3ebefa3f	0.37300298
12	0xbe0a4d75	-0.1350611
13	0x3e7d524a	0.24738422
14	0xbe26180f	-0.16220115
15	0xbea164f4	-0.31522334

conv2.weight f4 [32, 16, 3, 3]
0	0x3bd7e4ce	0.006588555
1	0x3d1c34cd	0.038136292
2	0x3dcac511	0.09900869
3	0x3c942e05	0.01808835
4	0xbcccda16	-0.025006335
5	0xbd8e2b8d	-0.069419004
6	0xbe439ef3	-0.19103603
7	0xbd7f1aab	-0.062281292
8	0x3ce0f5a0	0.027460873
9	0xbc367b06	-0.0111377295
10	0x3c667112	0.014065044
11	0xbcbce945	-0.02306045
12	0x3d2e7ba9	0.0425984
13	0xbd9c7d9e	-0.07641147
14	0xbd698ddc	-0.057020053
15	0x3c49b613	0.012311476
16	0x3d8ca616	0.06867616
17	0xbaf1079c	-0.0018389109
18	0xbd90fda3	-0.07079627
19	0x3d88d729	0.066816635
20	0x3d6a3552	0.057179756
21	0xbcd5c956	-0.026096981
22	0x3b8a8fb0	0.0042285547
23	0xbd7a9868	-0.061180502
24	0xbd90a003	-0.0706177
25	0x3c263f18	0.010146879
26	0x3d9fcedd	0.07803128
27	0xbcf41148	-0.029793397
28	0xbda4c026	-0.08044462
29	0xbda3b586	-0.07993607
30	0x3d5e1ce6	0.05422678
31	0xbd4d58fc	-0.05013369
32	0x3d0ea175	0.034821946
33	0xbaded7c0	-0.0017001554
34	0xbbf967ea	-0.0076112645
35	0xbc20e9ca	-0.009821365
36	0xbd1f14c3	-0.03883816
37	0x3c596c61	0.013270468
38	0xbdbccc8e	-0.09218703
39	0xbd0a90cb	-0.03382949
40	0x3d6db07b	0.058029633
41	0x3d1c1144	0.038102403
42	0x3d20e8b4	0.039284423
43	0x3d4f559d	0.050618757
44	0x3d35e737	0.044409957
45	0x3d1e2a93	0.03861482
46	0xbe2e2ac5	-0.17008503
47	0xbe2a2d8d	-0.16618939
48	0xbb6c14db	-0.0036023173
49	0x3c3b0c54	0.0114165135
50	0xbdb69ab3	-0.08916225
51	0xbdf6e2da	-0.12054987
52	0xbd389c15	-0.045070726
53	0x3c841489	0.016123073
54	0xbdd9d0d3	-0.10635533
55	0x3e4bab22	0.198895
56	0x3e423cd8	0.18968523
57	0xbcb716c9	-0.022349732
58	0x3d8513ff	0.064979546
59	0x3d9328a6	0.071854874
60	0x3d2b9a38	0.04189512
61	0xbd97958e	-0.07401572
62	0x3e1765d8	0.14784944
63	0x3d97fd36	0.07421343
64	0x3c7712e2	0.015080186
65	0xbd77a868	-0.06046334
66	0x3dbfee3d	0.09371612
67	0x3d7a0862	0.06104315
68	0xbd42a3a3	-0.047519337
69	0x3cb8070e	0.022464301
70	0x3dd21bf2	0.102592364
71	0xbc0b0946	-0.008486098
72	0xbdb5dbaf	-0.08879792
73	0x3ca70db6	0.02039228
74	0x3d2f9908	0.04287055
75	0xbd856a15	-0.06514374
76	0xbdb8050e	-0.08985339
77	0x3da896e1	0.08231903
78	0x3d8f7f73	0.07006731
79	0xbda99443	-0.08280232
80	0x3d546e19	0.05186281
81	0xbd3a2004	-0.04544069
82	0xbd9279a7	-0.071521096
83	0x3c820d88	0.015875593
84	0xbe4713b4	-0.1944111
85	0xbda7db34	-0.081961066
86	0xbe51d73d	-0.20492263
87	0x3e21f28b	0.15815179
88	0x3b4e621d	0.0031491586
89	0x3dedc688	0.116101325
90	0xbbc72003	-0.006076814
91	0xbe04af6e	-0.12957546
92	0x3b3464b2	0.002752584
93	0x3df6339d	0.12021563
94	0xbd428a9d	-0.047495473
95	0x3dc97c3a	0.098381475
96	0x3da036ef	0.07822978
97	0xbdc2205e	-0.0947883
98	0xbdaaa36a	-0.0833195
99	0xbe536372	-0.20643404
100	0xbb12b8da	-0.0022388012
101	0x3d8a7059	0.0675971
102	0xbe0b7481	-0.13618661
103	0xbde72c0a	-0.11287697
104	0x3b9dbde6	0.0048138974
105	0xbe0015d7	-0.12508331
106	0xbe50ac2d	-0.2037818
107	0x3cbd4cf1	0.023107978
108	0x3dcabd5e	0.098994
109	0xbcfa678e	-0.030566957
110	0xbdf02291	-0.11725343
111	0x3d945035	0.07241861
112	0x3d944c4b	0.07241114
113	0xbc8a608d	-0.016891742
114	0x3cb0f4ce	0.021601107
115	0x3d917b68	0.07103616
116	0xbcd6ca30	-0.026219457
117	0xbe04b11e	-0.1295819
118	0x3d0252b0	0.03181714
119	0x3e758ea2	0.23980191
120	0x3d4659df	0.04842555
121	0xbcd4d8d4	-0.025982298
122	0x3dd8001a	0.10546894
123	0xbe6dd60f	-0.23226188
124	0xbeae5a95	-0.34053484
125	0xbb4f0336	-0.0031587607
126	0xbcaf820f	-0.021424321
127	0x3d518c5a	0.05115924
128	0xbdfbc4a5	-0.12293366
129	0x3ca6205f	0.020279108
130	0xbd8bd685	-0.06828026
131	0xbc895c7b	-0.016767731
132	0x3d0d646c	0.034519598
133	0x3d91cab4	0.07118741
134	0x3de12bfd	0.10994718
135	0x3e139bd8	0.14414918
136	0x3db0932f	0.08621823
137	0x3dbbb734	0.091658026
138	0x3d2fecd7	0.042950477
139	0xbd8839c1	-0.06651641
140	0xbdae40eb	-0.08508476
141	0x3e30e186	0.1727353
142	0x3e36d22f	0.17853616
143	0x3dd4600a	0.103698805
144	0xbe285c29	-0.16441406
145	0xbd51800f	-0.051147517
146	0xbe48e919	-0.1962017
147	0xbe6b4dd3	-0.22978906
148	0xbdb9b5b6	-0.09067862
149	0xbe692dc1	-0.2277136
150	0xbe32c94a	-0.17459598
151	0xbdf0657a	-0.11738105
152	0xbe3d2c80	-0.18474007
153	0x3c2ca5d9	0.010537588
154	0xbd88f695	-0.06687657
155	0xbd54c704	-0.05194761
156	0x3c915ef6	0.017745476
157	0x3c302779	0.0107515985
158	0x3d22d996	0.039758287
159	0x3d4c390b	0.049859088
160	0xbd5790b1	-0.052628223
161	0xbd80cfdf	-0.06289648
162	0x3b0d3c20	0.002155073
163	0xbd3382f0	-0.043826044
164	0x3d899d3d	0.06719444
165	0x3cca5c00	0.024702072
166	0x3d4cb062	0.0499729
167	0xbd49656b	-0.049168985
168	0x3c3de858	0.01159104
169	0xbbc09f70	-0.0058783814
170	0xbd6bbd16	-0.057553373
171	0x3ccf9ba4	0.02534277
172	0x3d40e904	0.04709722
173	0xbda2088e	-0.07911788
174	0xbd91d3bc	-0.07120463
175	0x3cf315c8	0.029673472
176	0xbd0b8391	-0.03406102
177	0xbddec58c	-0.10877523
178	0x3c3ef338	0.011654668
179	0xbd43de68	-0.047819525
180	0xbd4437fa	-0.047904946
181	0x3e0482e8	0.12940562
182	0x3c6f9958	0.014623962
183	0x3c19b838	0.0093823
184	0x3e233edb	0.15941946
185	0x3dbd62e0	0.092473745
186	0xbdc5fc96	-0.096673176
187	0x3e089d26	0.13341197
188	0x3d9863a9	0.07440884
189	0x3dc6fac6	0.097158
190	0x3e101f21	0.14074375
191	0x3cad4605	0.021151552
192	0xbb040e93	-0.0020150288
193	0x3db365c5	0.087596454
194	0xbe2fd8a4	-0.17172486
195	0xbceb162f	-0.028697101
196	0x3cd7f373	0.026361203
197	0xbd1b8e73	-0.037977647
198	0xbd8bd27f	-0.06827258
199	0x3dc1ecd2	0.09468998
200	0xbb85d4ab	-0.00408419
201	0xbdd4d2ad	-0.10391746
202	0xbc2f513b	-0.010700519
203	0xbe2fec57	-0.1718
204	0xbe208b6f	-0.1567819
205	0xbdb19d80	-0.08672619
206	0xbed1c29c	-0.40968788
207	0x3d08cfee	0.033401422
208	0x3b3e8d7d	0.0029076033
209	0xbd97395d	-0.07383988
210	0xbd913c36	-0.070915624
211	0x3d923bf9	0.07140345
212	0xbdd42a75	-0.103596605
213	0x3cf88f03	0.03034163
214	0x3d6ded25	0.058087487
215	0x3d678565	0.0565237
216	0x3d9d0fbc	0.07669017
217	0x3d6c9e53	0.057768177
218	0xbc8bb6a9	-0.017054873
219	0xbd5a1da0	-0.05325091
220	0x3c85e0ff	0.016342638
221	0xbadc6314	-0.0016814196
222	0xbd34bfa4	-0.044128075
223	0xbdb9f872	-0.0908059
224	0xbe3b389b	-0.18283312
225	0xbe8b6288	-0.2722361
226	0xbdd9c2b0	-0.10632837
227	0xbde4191b	-0.11137601
228	0xbe287279	-0.16449918
229	0xbcd4821c	-0.025940947
230	0x3e6269d4	0.22110683
231	0xbe47dfac	-0.19518918
232	0xbe165c6c	-0.14683694
233	0xbe189b47	-0.14902984
234	0xbda17f0e	-0.07885562
235	0x3d033bc3	0.032039415
236	0xbb0bb0e2	-0.0021315147
237	0x3d999d20	0.07500672
238	0xbdbd224f	-0.092350595
239	0xbd65ab07	-0.056071308
240	0xbd74a2d7	-0.05972561
241	0xbdb65204	-0.08902362
242	0xbd9ebe93	-0.07751193
243	0xbcf6245d	-0.030046636
244	0xbdd54620	-0.10413766
245	0xbd019d24	-0.031644
246	0xbe1aa849	-0.15103258
247	0xbe49df37	-0.19714056
248	0xbe67fb0a	-0.22654358
249	0xbde6e144	-0.11273435
250	0xbe28c3c2	-0.16480926
251	0xbeb7f77b	-0.35931
252	0x3d1615ac	0.03664176
253	0xbd201b01	-0.039088253
254	0xbc20e3a8	-0.0098199025
255	0xbd7fea7d	-0.062479485

conv2.bias f4 [32]
0	0xbc89012e	-0.016724195
1	0x3b049a73	0.002023366
2	0xbcfe22fa	-0.031022537
3	0x3db8d3ff	0.0902481
4	0xbcf21b63	-0.029554075
5	0x3daf335d	0.08554719
6	0x3df0ab22	0.11751391
7	0xbd5b401e	-0.053527944
8	0xbdae8c40	-0.08522844
9	0x3d2ca8a5	0.04215302
10	0xbd8e5d64	-0.069514066
11	0xbd5b5a35	-0.053552825
12	0xbdc77322	-0.09738757
13	0xbd9e1014	-0.077179104
14	0xbd81b52a	-0.063333824
15	0xbd41df11	-0.047331873
16	0x3d32dde6	0.04366865
17	0xbd2254a8	-0.039631516
18	0xbbf9142e	-0.0076012826
19	0x3e1f1f31	0.15539242
20	0xbda8ef12	-0.08248724
21	0xbbfc032d	-0.0076908083
22	0xbd8a3e2c	-0.067501396
23	0x3cb436f7	0.021998866
24	0x3c15d945	0.009146039
25	0x3d53231d	0.05154716
26	0x3cd745ac	0.02627834
27	0x3d84ba06	0.06480794
28	0x3d33e2d8	0.043917507
29	0xbbf1b1c4	-0.0073759276
30	0xbda36c83	-0.07979681
31	0x3bf87d03	0.007583262

fc1.weight f4 [128, 1152]
0	0x3c732bd5	0.014841993
1	0x3d4121d9	0.04715142
2	0x3c6f1f30	0.014594838
3	0xbd601781	-0.054709915
4	0xbccab0f6	-0.024742585
5	0x3cb7d062	0.022438232
6	0x3d837ffb	0.06420895
7	0x3da8b65f	0.082379095
8	0x3cd49372	0.025949214
9	0x3b414c99	0.0029495119
10	0xbce12b1a	-0.027486373
11	0x3d457508	0.048207313
12	0xbd3cb865	-0.04607429
13	0x3df0087d	0.11720369
14	0x3e0a5651	0.1350949
15	0x3d740782	0.059577473
16	0x3db594fa	0.08866306
17	0x3c9b4367	0.018953038
18	0xbcf81504	-0.030283459
19	0xbda6090d	-0.08107195
20	0xb9de0753	-0.00042348597
21	0xbdcc5b1a	-0.09978314
22	0xbd030267	-0.031984713
23	0xbc5a9420	-0.01334098
24	0xbd511f98	-0.05105552
25	0xbdf8e27e	-0.12152575
26	0xbc4b3384	-0.012402419
27	0xbc99271d	-0.018695408
28	0xbd153f2b	-0.036437195
29	0x3b0564dc	0.0020354306
30	0xbe178ec5	-0.14800556
31	0xbdbbfe7f	-0.09179401
32	0xbc97d151	-0.018532427
33	0xbc07f96c	-0.008299213
34	0xbc4f3503	-0.012646916
35	0xbcc25f74	-0.023727156
36	0x3da3fc77	0.08007138
37	0xbd21948f	-0.039448317
38	0xbd812f43	-0.063078426
39	0x3b1d36c5	0.0023988944
40	0x3db6d2f6	0.08926956
41	0x3d90e83e	0.07075547
42	0x3da2815c	0.079348296
43	0x3cfb77df	0.030696807
44	0x3dd2a0fc	0.102846116
45	0x3da07f02	0.07836725
46	0x3d365323	0.04451288
47	0x3d9cc016	0.07653825
48	0x3d6141a3	0.054994237
49	0xbcb5f9ad	-0.022213781
50	0xbc17a112	-0.009254711
51	0x3d5f60f1	0.05453581
52	0x3da91b8b	0.082572065
53	0x3db097e0	0.08622718
54	0xbd3b2749	-0.045691762
55	0x3d4cb2c0	0.049975157
56	0xbc3bcf7d	-0.011463043
57	0xbb5c47b9	-0.0033612086
58	0xbbd25b37	-0.006419565
59	0xbd7842df	-0.06061065
60	0xbd5ca2c6	-0.05386617
61	0xbd8200c7	-0.063478045
62	0xbe2fd719	-0.17171897
63	0xbe1ebac3	-0.15500931
64	0xbc109892	-0.008825438
65	0xbd0c9fa3	-0.03433193
66	0xbd4d1a1e	-0.050073735
67	0xbcbfbc7b	-0.023405304
68	0xbd40a53e	-0.047032587
69	0xbcadbbfe	-0.021207806
70	0x3c4db12a	0.012554446
71	0xbd80263d	-0.062572934
72	0x3bc86f94	0.006116817
73	0xbb005440	-0.0019581467
74	0x3cbd310d	0.023094678
75	0xb8e22600	-0.00010783598
76	0x3b4ad168	0.003094757
77	0x3c36fc1e	0.011168508
78	0xbc7a9f70	-0.015296802
79	0x3c585692	0.013204234
80	0x3addf220	0.0016933121
81	0x3c97df7f	0.018539188
82	0xbc7fbfd8	-0.015609704
83	0x3bdb45dc	0.0066916775
84	0x3c96e5ad	0.018420065
85	0x3ca6bfe1	0.020355167
86	0x3c6a9446	0.014317578
87	0x3bc2667c	0.0059326272
88	0xbb6398f0	-0.003472861
89	0xbcb38e4d	-0.02191844
90	0x3b25a938	0.0025277864
91	0xbcc070cf	-0.023491291
92	0xbc97ace0	-0.01851505
93	0x3cae85ed	0.021304095
94	0x3ccbae9b	0.024863532
95	0x3c9c5ba3	0.019086665
96	0xbc83de9c	-0.01609736
97	0xba7f29e0	-0.0009733718
98	0xbcacdac6	-0.021100413
99	0x3cd47e15	0.025939027
100	0x3bf83fa4	0.007575946
101	0xbced48b3	-0.02896533
102	0x3b248d68	0.0025108699
103	0xbb90c014	-0.0044174287
104	0x3cf0e70f	0.029407052
105	0x3c308182	0.010773065
106	0x3cd50a3d	0.026005859
107	0x3bafe61b	0.005368007
108	0x3c99402f	0.018707363
109	0x3ca82842	0.020527009
110	0x3d0e8469	0.034794245
111	0xbdd207cd	-0.10255394
112	0xbe4fdd99	-0.20299377
113	0xbd1d9ad1	-0.038477723
114	0x3dc9f819	0.09861774
115	0x3dd186cd	0.10230789
116	0xbd2746df	-0.040839072
117	0xbe0c17c3	-0.1368094
118	0xbbe39335	-0.0069450387
119	0xbb64de99	-0.0034922718
120	0x3e29c35c	0.1657843
121	0x3c20fb5e	0.009825556
122	0x3dff57ec	0.12467942
123	0xbc6c77ff	-0.014432906
124	0x3d3fbbe3	0.046810042
125	0xbc28d1b9	-0.010303908
126	0x3c6d836a	0.014496664
127	0x3e41dfc1	0.18933012
128	0x3e8e25c1	0.2776318
129	0x3dae35b6	0.08506338
130	0xbd8b066e	-0.06788336
131	0xbc04f072	-0.008113967
132	0xbcacb63a	-0.021082986
133	0x3d4c6430	0.049900234
134	0xbcf13b14	-0.029447116
135	0xbe184d57	-0.14873253
136	0xbdc7de0e	-0.097591504
137	0xbd008b02	-0.03138257
138	0xbe0b18b4	-0.13583642
139	0xbd8ff876	-0.07029812
140	0xbdd8b8d1	-0.10582126
141	0xbc4ca526	-0.012490546
142	0xbcb1faee	-0.021726098
143	0xbc88a111	-0.016678365
144	0x3c36a8a8	0.011148609
145	0x3db97630	0.090557456
146	0x3d42066f	0.047369417
147	0xbdb83bd2	-0.08995785
148	0x3c927e01	0.017882349
149	0xbd1a53db	-0.037677627
150	0x3e04d231	0.12970807
151	0x3c47d7bc	0.012197431
152	0xbcdec48a	-0.027193327
153	0xbe0e238c	-0.13880748
154	0xbb1cf023	-0.0023946844
155	0xbd3c7e13	-0.04601867
156	0xbd80f474	-0.06296626
157	0xbcbbcd2c	-0.022924982
158	0x3eaf3ecc	0.34227598
159	0x3e1de7a8	0.15420401
160	0xbd8466f9	-0.06464953
161	0x3d2c3d36	0.042050563
162	0xbd9129ab	-0.07088026
163	0x3dbf9d3e	0.093561634
164	0x3dd59811	0.10429395
165	0xbd28517b	-0.04109333
166	0x3c4665ee	0.012109263
167	0xbcdb134b	-0.026742598
168	0xbd94e2e4	-0.072698385
169	0x3e18eb84	0.14933592
170	0xbe1f9e3c	-0.15587705
171	0xbdc84472	-0.0977868
172	0x3dcdc7d1	0.100478776
173	0xbe0594ec	-0.1304509
174	0xbded006e	-0.115723476
175	0xbe311497	-0.1729301
176	0xbe759af7	-0.23984896
177	0x3baafe06	0.0052182702
178	0x3d085cce	0.03329163
179	0x3d84f214	0.06491485
180	0xbce41dce	-0.027846243
181	0x3c7b0d90	0.015323058
182	0xbd40f3f7	-0.047107663
183	0xbd085e72	-0.033293195
184	0x3cae612d	0.021286571
185	0xbc56e387	-0.01311577
186	0xbb3fd155	-0.0029269059
187	0x3cc400b4	0.023926117
188	0x3d6b54d6	0.057453953
189	0x3d81d4dc	0.06339428
190	0x3c4bcc11	0.01243879
191	0x39cc41e6	0.0003895901
192	0xbd83735d	-0.06418488
193	0x3d62f253	0.05540688
194	0x3dbd2247	0.092350535
195	0x3d8ac7c1	0.06776381
196	0x3cf0c680	0.029391527
197	0xbbc4713b	-0.0059949434
198	0x3ca6bb56	0.020353
199	0x3d77c2d9	0.060488556
200	0xbdff165a	-0.12455435
201	0xbe1e6f50	-0.1547215
202	0xbafbad4c	-0.0019201427
203	0xbba57052	-0.00504879
204	0xbcb243ed	-0.021760905
205	0xbc463e34	-0.012099791
206	0xbe125646	-0.14290723
207	0xbe48f425	-0.19624384
208	0xbce2e3b9	-0.027696477
209	0xbd09fe47	-0.033689763
210	0xbbda7dd5	-0.0066678324
211	0x3d21570d	0.03938966
212	0x3d0ed53a	0.034871317
213	0x3ce4a94a	0.027912755
214	0x3d348ff2	0.04408259
215	0x3cc22df8	0.02370356
216	0x3d4a9753	0.04946072
217	0x3d9ffbc7	0.078116946
218	0xbcac881f	-0.021061001
219	0xbd544ca5	-0.051830906
220	0xbbef7225	-0.0073073083
221	0xbcc622eb	-0.024186572
222	0x3c8bbdc8	0.017058268
223	0xbd90dae3	-0.07072999
224	0xbdfb6c69	-0.12276537
225	0xbcf1058b	-0.029421588
226	0xbdcea17b	-0.10089394
227	0xbd844885	-0.064591445
228	0x3e10e96d	0.14151545
229	0x3de45470	0.11148918
230	0xbe673eb1	-0.22582509
231	0xbde380d2	-0.11108555
232	0xbe4f1360	-0.20222235
233	0x3afc5143	0.0019250292
234	0xbc89963d	-0.016795272
235	0x3cdcdbfb	0.026960364
236	0xbc9072fd	-0.017632956
237	0x3e6bc8ac	0.23025769
238	0x3d3d1826	0.046165608
239	0xbcd31cf2	-0.025770638
240	0xbd64458e	-0.055730395
241	0xbda4f5bc	-0.080546826
242	0x3ded171e	0.11576675
243	0x3eac7118	0.33680034
244	0x3e03356d	0.12813349
245	0x3d3b4f4c	0.04572992
246	0x3b10c37d	0.0022089176
247	0xbd2049ef	-0.03913301
248	0xbde8f2af	-0.11374413
249	0x3d98cde9	0.07461149
250	0x3d8b1cdd	0.067926146
251	0xbd4eb461	-0.05046499
252	0xbb7355ef	-0.0037130078
253	0x3ce830b5	0.028343538
254	0xbc2f650e	-0.010705246
255	0xbd152181	-0.036408905

fc1.bias f4 [128]
0	0xbd0b7779	-0.034049485
1	0xbc81de2f	-0.015853016
2	0x3cbe59c5	0.023236165
3	0xbcb6edd7	-0.022330208
4	0xbcf8f00c	-0.0303879
5	0x3990ffb1	0.00027656325
6	0xbd36fd21	-0.044674996
7	0xbd1a6397	-0.037692633
8	0x3b188488	0.0023272354
9	0x3db93e67	0.090451054
10	0xbd28b256	-0.0411857
11	0x3d251370	0.04030174
12	0xbd01e441	-0.03171182
13	0x3c097882	0.008390548
14	0x3d1d94a3	0.03847183
15	0x3c7a6210	0.015282169
16	0x3cb3f931	0.02196941
17	0xbbc987aa	-0.0061502056
18	0x3cccc159	0.02499454
19	0xbd034f8b	-0.03205828
20	0xbbde25e8	-0.006779421
21	0x3c406554	0.0117429085
22	0x3c584641	0.013200344
23	0x3db3ad66	0.087733075
24	0x3c4264eb	0.011864881
25	0x3c2b4fe0	0.010456055
26	0x3d9f10a5	0.077668466
27	0x3c391185	0.011295681
28	0x3d533fa7	0.051574375
29	0xbc8b0aca	-0.016972918
30	0xbad16c24	-0.0015977663
31	0x3be3c6a7	0.0069511714
32	0xbb9ff9f2	-0.0048820907
33	0xbc89fa9d	-0.016843135
34	0xbcb921ff	-0.022599218
35	0x3a9d42fd	0.0011998113
36	0x3d799d2a	0.0609409
37	0x3da7d2d2	0.08194508
38	0xbc663fd9	-0.014053308
39	0x3d995fdd	0.074889876
40	0x3daaf1f7	0.083469324
41	0x3d87478b	0.066054426
42	0xbca63edc	-0.020293646
43	0x3ccb79e4	0.024838395
44	0xbc9168af	-0.017750112
45	0x3c804a4f	0.015660433
46	0x3d910be0	0.07082343
47	0xbd93fc59	-0.07225866
48	0x3db1ac63	0.08675458
49	0xbb68ca30	-0.0035520904
50	0xbd08bae2	-0.03338135
51	0xbd86f995	-0.06590573
52	0x3c0a6f5c	0.008449402
53	0x3c26f1d7	0.010189495
54	0xbd0bba51	-0.034113232
55	0x3db5e032	0.088806525
56	0x3ce1aece	0.027549174
57	0x3bb1dec8	0.005428169
58	0x3c00defd	0.007865665
59	0xbd823897	-0.0635845
60	0x3b8038bc	0.0039130133
61	0x3d0b8be8	0.034068972
62	0xbbbf7a5e	-0.0058434447
63	0x3cbba3a9	0.022905188
64	0xbaf55c60	-0.0018719546
65	0x3d6daaf2	0.058024354
66	0xbbb96646	-0.005657944
67	0xbcb60276	-0.02221797
68	0xba1ee759	-0.0006061695
69	0x3ba3bb91	0.004996725
70	0x3d951353	0.072790764
71	0xbc10008c	-0.008789193
72	0xbc8abff9	-0.016937243
73	0x3d8262e6	0.0636652
74	0xbcdd8344	-0.027040131
75	0xbd03bc49	-0.032161985
76	0xbd822fa8	-0.06356746
77	0x3da44f85	0.0802298
78	0xbbbea9b7	-0.0058185714
79	0x3c448537	0.0119946515
80	0xbd593178	-0.053025693
81	0xbbe42df2	-0.006963485
82	0x3b21bbec	0.002467866
83	0x3c92ac88	0.017904535
84	0xbcf01639	-0.029307472
85	0x3c0fa9ea	0.008768538
86	0x3da49f10	0.08038151
87	0x3cd64cec	0.026159726
88	0xbb80e2ea	-0.0039333003
89	0xbce3f2c0	-0.027825713
90	0xbc3f1099	-0.011661672
91	0xbd0a1c7a	-0.033718564
92	0xbc35c7f1	-0.011095033
93	0x3aa16e52	0.0012316203
94	0xbc93fbd3	-0.018064415
95	0x3b9fd4f5	0.0048776814
96	0xbd25422e	-0.040346317
97	0x3d7e8837	0.062141623
98	0x3b95ffda	0.004577619
99	0xbc8287cc	-0.015933894
100	0x3cd00166	0.025391292
101	0xbb9835ea	-0.004645099
102	0xbcfd6416	-0.030931514
103	0x3cb785c7	0.022402657
104	0xbd112c13	-0.035442423
105	0xbcc1786a	-0.023616988
106	0xbcb8e0ee	-0.022568192
107	0x3c8be954	0.017079033
108	0xbbba9d02	-0.0056949863
109	0x3cbb77d7	0.022884293
110	0xbbadd090	-0.0053044036
111	0xbc1d6e96	-0.009608885
112	0xbbe2b516	-0.00691856
113	0x3db393ff	0.087684624
114	0xbcb33148	-0.021874085
115	0xbc908f2b	-0.017646393
116	0xbc96bf93	-0.018401897
117	0xbcf12b03	-0.029439455
118	0xbcba75c1	-0.022761228
119	0xbb16ab34	-0.0022990229
120	0xbd11edb9	-0.0356271
121	0xbc1b1a1b	-0.009466673
122	0xbd78946f	-0.060688432
123	0x3d9cf1d4	0.076633126
124	0xbcc02599	-0.023455428
125	0xbd0940da	-0.033509113
126	0xbbf631d0	-0.0075132623
127	0xbcb4a3d8	-0.022050783

fc2.weight f4 [2, 128]
0	0xbe8c0668	-0.27348638
1	0x3d8d34de	0.06894849
2	0xbd506860	-0.05088079
3	0x3d43a88b	0.047768157
4	0xbd76d854	-0.0602649
5	0x3cd90894	0.026493348
6	0xbe4910a2	-0.19635251
7	0x3d860d90	0.065455556
8	0xbea00574	-0.3125416
9	0x3e2e363c	0.17012876
10	0x3cfbeb23	0.03075177
11	0x3e0ede53	0.13951997
12	0xbe75cedc	-0.24004692
13	0xbd03b5cc	-0.032155797
14	0xbed84dda	-0.42246896
15	0xbe9cd2b6	-0.3062951
16	0xbda52e89	-0.080655165
17	0x3d875f02	0.06609918
18	0xbec4f9cc	-0.3847183
19	0xbeba0c53	-0.36337528
20	0xbf3c9b8e	-0.7367486
21	0x3d490699	0.049078558
22	0x3cf795be	0.03022277
23	0x3f0bc395	0.5459531
24	0x3d75219e	0.059846513
25	0x3d697b66	0.057002448
26	0x3e1b3c05	0.15159614
27	0xbe4551fa	-0.19269553
28	0x3e377570	0.17915893
29	0x3d84c35f	0.064825766
30	0xbc1518db	-0.009100164
31	0xbe278c9f	-0.16362236
32	0xbe5222bc	-0.20521063
33	0xbf390afa	-0.72282374
34	0xbeb52cd5	-0.35385767
35	0x3d0a1f1c	0.033721074
36	0x3dc17e9b	0.09447976
37	0x3e0ce6f9	0.13759984
38	0x3da582be	0.08081578
39	0x3e28db40	0.16489887
40	0x3dd3286a	0.10310443
41	0x3e113d2e	0.14183494
42	0x3d076ac8	0.03306082
43	0xbef35878	-0.47528434
44	0xbdfbc6c4	-0.12293771
45	0xbd590af8	-0.052988976
46	0x3e2208d8	0.15823686
47	0xbebf76c9	-0.37395313
48	0x3e300b27	0.17191754
49	0x3d149cf5	0.0362825
50	0x3d142387	0.036166694
51	0xbecce855	-0.40021005
52	0xbd5fd421	-0.05464566
53	0xbe8285a2	-0.2549258
54	0xbd7446e5	-0.059637923
55	0x3e398753	0.18118028
56	0xbe8b0719	-0.27153853
57	0xbe7220b4	-0.23645288
58	0x3d62983b	0.05532096
59	0xbe74f7dd	-0.23922677
60	0xbe2429c3	-0.16031556
61	0xbead773a	-0.33880025
62	0xbe2cc8ff	-0.16873549
63	0x3d0291d3	0.03187735
64	0x3b63f9e7	0.0034786405
65	0x3dbda69e	0.09260295
66	0x3d566139	0.052338813
67	0x3cd17daf	0.025572626
68	0xbe217252	-0.15766266
69	0xbd945faa	-0.07244809
70	0x3e227a69	0.15867008
71	0x3d0a0ad7	0.033701744
72	0xbe6fb725	-0.23409708
73	0x3e27e18e	0.16394636
74	0x3d9d865f	0.07691645
75	0x3c642841	0.013925613
76	0xbe91949a	-0.28433686
77	0x3e837036	0.25671548
78	0xbe8add1a	-0.27121812
79	0x3cf0569d	0.029338175
80	0xbe3eb3f5	-0.18623336
81	0xbe5f2c7d	-0.21794315
82	0xbefed846	-0.4977438
83	0xbece97e4	-0.40350258
84	0xbe95958e	-0.29215664
85	0xbe5f30eb	-0.21796004
86	0x3d8221d6	0.0635411
87	0xbebe1337	-0.37124035
88	0x3d150c64	0.03638877
89	0xbd48d523	-0.049031388
90	0xbe9ba9cb	-0.3040298
91	0xbe37f12a	-0.1796309
92	0xbc5ebe10	-0.013595119
93	0x3c9f698e	0.019459512
94	0x3d4ec63b	0.050482016
95	0x3a1703f8	0.0005760784
96	0xbd2f4115	-0.042786676
97	0x3e029c87	0.12755023
98	0xbe1e4ed4	-0.15459758
99	0xbe3a270e	-0.1817896
100	0xbe5edeb3	-0.2176464
101	0xbc97a636	-0.018511873
102	0xbe6bd281	-0.2302952
103	0xbed4a0e6	-0.41529006
104	0xbe52d01d	-0.20587201
105	0xbe551995	-0.2081054
106	0xbbe90a67	-0.0071118358
107	0x3d798a78	0.06092307
108	0xbd915e37	-0.07098048
109	0x3d9b0a52	0.07570328
110	0x3d7150c8	0.05891493
111	0xbe34b418	-0.17646825
112	0xbc86c4f8	-0.016451344
113	0x3e0b43f5	0.13600142
114	0xbd563f04	-0.05230619
115	0x3d9a44b9	0.07532639
116	0xbe73ea35	-0.23819812
117	0x3c30f200	0.010799885
118	0xbaa595b4	-0.0012633116
119	0x3c48edde	0.012263743
120	0xbe853aee	-0.26021522
121	0xbda3e763	-0.08003118
122	0xbe4dc936	-0.20096287
123	0x3e68a322	0.2271848
124	0xbe7c1ba4	-0.24619919
125	0xbe515b39	-0.20444955
126	0x3da82296	0.08209722
127	0x39774e23	0.00023584864
128	0x3e5e81d6	0.21729216
129	0x3da42a38	0.08015865
130	0xbd657171	-0.05601639
131	0x3d30dc29	0.04317871
132	0x3ca6a917	0.0203443
133	0x3b04e9fe	0.0020281072
134	0x3e2a14f9	0.16609563
135	0x3d35bce4	0.044369593
136	0x3e4ed88c	0.20199794
137	0xbdb2878e	-0.08717261
138	0xbd805bb9	-0.06267495
139	0xbd7fd096	-0.062454782
140	0x3e3389c0	0.17533016
141	0x3d0f739a	0.035022356
142	0x3eef6107	0.46753713
143	0x3e9575f7	0.29191563
144	0xbdb01656	-0.0859801
145	0x3d5e6677	0.054296937
146	0x3ee92678	0.45537162
147	0x3ed235a9	0.41056564
148	0x3f38b3af	0.72149175
149	0x3d09d770	0.033652723
150	0xbc0fdc71	-0.008780585
151	0xbf097f88	-0.5371022
152	0xbda5518e	-0.08072196
153	0x3b6632d2	0.0035125506
154	0xbe01d3df	-0.12678479
155	0x3ea0e954	0.31428015
156	0xbe5d700a	-0.21624771
157	0x3db00429	0.085945435
158	0xbcf2fd63	-0.02966184
159	0x3e44f4df	0.19234036
160	0x3e9f67f9	0.31134012
161	0x3f18024d	0.5937851
162	0x3eb7567b	0.35808167
163	0x3c7ebe60	0.015548319
164	0xbe1d6da1	-0.15373851
165	0xbd99b28b	-0.075047575
166	0x3d697510	0.056996405
167	0xbddd5757	-0.108076744
168	0xbdfced6c	-0.12349972
169	0xbe123fb0	-0.14282107
170	0xbc952d9f	-0.01821023
171	0x3ec5056d	0.38480702
172	0x3e5c46c4	0.2151137
173	0x3d1fd3a4	0.039020196
174	0xbdee2d54	-0.116297394
175	0x3f070f63	0.52757853
176	0xbe052b22	-0.13004735
177	0x3cb0936a	0.021554668
178	0xbc56665e	-0.01308593
179	0x3ea05289	0.3131297
180	0xbd1e59b8	-0.03865978
181	0x3de045f7	0.10950845
182	0xbd799a1f	-0.060937997
183	0xbd90ee35	-0.070766844
184	0x3e942e53	0.28941593
185	0x3e1ff0ac	0.15619153
186	0xbd0a5315	-0.03377064
187	0x3e5e3d25	0.21703012
188	0x3e862ab3	0.26204452
189	0x3e5eadc4	0.21745974
190	0x3e88e90c	0.267403
191	0xbd6b2dbf	-0.057416674
192	0x3d035a35	0.03206845
193	0xbe18fd80	-0.14940453
194	0x3d8602ca	0.06543501
195	0xbd79435d	-0.06085526
196	0x3e014ba5	0.12626512
197	0x3c441b83	0.01196945
198	0xbda8d5fc	-0.08243939
199	0x3d302de1	0.043012504
200	0x3eb7aa9e	0.35872358
201	0xbe1d12b8	-0.15339172
202	0x3d10c527	0.03534427
203	0xbcf5384c	-0.029934071
204	0x3e53b9b0	0.20676303
205	0xbdc3ebfd	-0.095664956
206	0x3e88826c	0.26662004
207	0x3c90f1ae	0.017693367
208	0x3e9c1428	0.30484128
209	0x3e49862d	0.1968009
210	0x3ef51a96	0.47871846
211	0x3ed56f65	0.4168655
212	0x3e95e669	0.29277351
213	0x3e8c6cf1	0.27426866
214	0xbe1357af	-0.14388917
215	0x3ead074c	0.3379463
216	0xbd5eec3e	-0.054424517
217	0x3d81eaeb	0.06343635
218	0x3e336fe1	0.17523147
219	0x3df85b44	0.121267825
220	0x3c242f54	0.0100210495
221	0xbd9ed7fd	-0.0775604
222	0xbcb63a93	-0.022244727
223	0xbccd80f1	-0.025085898
224	0xbd3b1a32	-0.04567928
225	0xbe11869e	-0.14211509
226	0x3e26286b	0.16226356
227	0x3e2493fb	0.16072075
228	0x3e377628	0.17916167
229	0xbd0752c2	-0.03303791
230	0x3e8ee17f	0.27906415
231	0x3ed64302	0.41847998
232	0x3e08b236	0.13349232
233	0x3e6fc08f	0.23413299
234	0xbd083e25	-0.03326239
235	0x3c011ed1	0.007880882
236	0x3aff046f	0.0019456277
237	0xbb80bf76	-0.003929074
238	0x3d6950b9	0.05696175
239	0x3cfef0ca	0.031120677
240	0xbcc5ddca	-0.024153609
241	0xbdd7affe	-0.10531615
242	0xbd89cbea	-0.06728347
243	0xbcd6dfdf	-0.026229797
244	0x3e14ff68	0.14550555
245	0x3d8f0d6b	0.06984981
246	0xbd2b1f6d	-0.041778017
247	0x3c8066df	0.015674053
248	0x3e656ea5	0.22405489
249	0x3d78de53	0.0607589
250	0x3e6509d4	0.2236703
251	0xbe37af3c	-0.1793794
252	0x3e812998	0.25227046
253	0x3e1d3c40	0.15355015
254	0xbd76e0f3	-0.060273122
255	0xbd25c16f	-0.040467676

fc2.bias f4 [2]
0	0x3d8f8e51	0.070095666
1	0xbdcdce08	-0.10049063
