models/mouth_cnn.pth (torch, 604777 bytes, 8 tensors)

convs.0.weight f4 [32, 1, 3, 3]
000000 07 c4 5d be ba 65 f0 3c 67 71 93 3d cf 8c 02 bd
       -0.2165681 0.029345382 0.07199364 -0.031872567
000010 b7 af 99 3e 89 a0 70 3e 63 57 38 be 80 43 a8 bd
       0.30016872 0.2349874 -0.18002085 -0.082159996
000020 89 5c 67 bb 7e 73 8e be 76 91 cd bd 16 c8 95 be
       -0.0035302958 -0.2782249 -0.1003751 -0.29254216
000030 d0 eb 80 3c e0 a5 5a 3d e0 47 18 bc 03 79 57 be
       0.015737444 0.053380847 -0.00929448 -0.21042256
000040 b4 93 dd 3d fb 59 71 be 8f 76 52 3d 0f d6 04 3e
       0.10819188 -0.23569481 0.051382598 0.12972282
000050 82 df b2 3d fa fa df 3d 95 a5 66 3c 6a 90 8e 3e
       0.08734037 0.10936542 0.014077564 0.27844554
000060 4f 3c 06 3e 63 77 4d be 20 dd d1 3d 7c ef b2 3e
       0.13108943 -0.20065074 0.10247254 0.34948337
000070 ef cc 7f be a4 a9 05 be 8c 8b 11 bc 53 2a 9e 3e
       -0.2498052 -0.13052994 -0.008883368 0.30891666
000080 e9 95 7b be 04 63 d3 bd 11 68 da 3d 13 de a6 3d
       -0.24568905 -0.1032162 0.1066438 0.08147826
000090 bf 7f aa 3e fc 3a 92 be 56 bb 42 be 81 24 29 be
       0.33300588 -0.28560627 -0.19016775 -0.16517831
0000a0 71 92 72 be b5 bd 72 be 0d 27 96 3e fc d4 d2 3d
       -0.23688675 -0.2370518 0.29326668 0.1029453
0000b0 c5 fb c6 bd 32 8c 93 3d 28 89 9f 3d 2c 89 cd bd
       -0.0971599 0.072044745 0.07789832 -0.10035929
0000c0 19 d9 e3 3d f5 2d d5 bd d1 a8 7a bc 93 1c 3e 3e
       0.111253925 -0.10409156 -0.015299038 0.18565588
0000d0 f2 19 a7 bb 04 a7 48 be b8 4e eb 3d 41 58 5c 3e
       -0.0050995285 -0.19594961 0.11489624 0.21518041
0000e0 c6 da 62 3e 09 22 50 be 5d 25 97 3e 75 28 0d be
       0.22153768 -0.20325483 0.29520693 -0.13784964
0000f0 9e ec 66 3d aa d2 2a be fa 2d bc bd 40 06 0a 3e
       0.056378 -0.16681924 -0.09188457 0.13478947
000100 d4 4c a7 be 76 af 28 be 1a fc 15 3e 32 ff 8a be
       -0.32675803 -0.16473183 0.1464695 -0.27147824
000110 b0 5d a7 be 3b 3c 86 be 90 b5 ff bd 4c 03 c5 3d
       -0.32688665 -0.26217827 -0.12485802 0.096197695
000120 81 3a 2c 3e 0f d3 c6 3d 94 4e 90 be 52 cb b6 be
       0.16819192 0.09708225 -0.2818495 -0.35701996
000130 e9 d4 c9 be 02 e1 09 3e 55 86 87 be 9a 6a 97 3e
       -0.3942025 0.1346474 -0.26469675 0.29573518
000140 17 d6 8c bd cd f5 03 bd 0f 2a 59 be aa 2b 28 be
       -0.06876772 -0.032216836 -0.2120745 -0.16422907
000150 ae 6a 75 be 09 c2 71 bd 0f ab 3d 3e fe f1 20 3d
       -0.23966476 -0.059022937 0.18522285 0.03929328
000160 8e 15 8d be 52 db b7 3e ee 9a b7 3e ff a6 35 3e
       -0.27555507 0.35909516 0.3586039 0.17739485
000170 09 96 40 3e 64 f5 f3 bd b3 1f 0d be 12 4d ae be
       0.18807234 -0.11912039 -0.13781624 -0.34043175
000180 66 81 2b 3d cd d8 d4 bd 35 c5 f5 3d 34 24 2a be
       0.04187145 -0.10392914 0.12000505 -0.16615373
000190 a7 9e ad 3d d9 7a d6 be 11 0a 97 bd 96 d5 c7 3d
       0.08477526 -0.418906 -0.07374967 0.09757535
0001a0 a7 39 55 be 67 8e 39 3e 5b 56 82 3e ff 21 44 3e
       -0.20822774 0.18120728 0.2545651 0.19153593
0001b0 d8 62 dc bd 82 e4 90 3d b1 2a 4f 3e 3d 21 2c 3d
       -0.107610404 0.070748344 0.20231129 0.042023886
0001c0 f2 ea 33 bb 53 21 08 3e 6f 4f 13 3e 54 ca 81 3e
       -0.002745327 0.13293962 0.1438577 0.25349677
0001d0 25 68 45 3e 78 0d 71 3e e2 b1 c0 bd b6 65 55 be
       0.19278009 0.23540294 -0.094089285 -0.20839581
0001e0 47 6e 90 3e 7a ec 6c 3e 50 e7 97 3e 1b 23 c5 be
       0.28209135 0.23137084 0.29668665 -0.38503346
0001f0 44 6b 19 3e ae cf 53 be d8 e2 84 3c a1 84 63 be
       0.14982325 -0.20684692 0.016221449 -0.22218563
000200 21 ad 97 be f4 4c 59 bc db 9e 95 3b 46 63 53 be
       -0.29624274 -0.013262976 0.004566056 -0.20643339
000210 91 4a 8b bc 62 e6 73 be 67 d1 22 3e 77 cc 97 3e
       -0.01700333 -0.23818353 0.15900193 0.29648182
000220 e7 24 ae be 78 d8 5d bd 87 76 86 3e 25 69 c2 3d
       -0.3401253 -0.05416152 0.26262304 0.09492711
000230 33 61 ba bd 4b c8 52 3e ec 46 3f be d5 de 91 3e
       -0.091005705 0.20584218 -0.18679398 0.2849032
000240 63 4d 7b bc a8 5a d4 3d 51 6f 96 be df 9b 20 bd
       -0.015338275 0.10368854 -0.29381803 -0.03921115
000250 45 0a 1d 3e d8 e8 2b be 67 48 36 be 29 5f 37 3e
       0.15335949 -0.16788042 -0.17801057 0.17907394
000260 fb d3 64 be 6d 7e 45 be ca 25 fb bc 4b c2 80 3e
       -0.22346489 -0.19286509 -0.030657668 0.25148234
000270 85 ae 77 3d 2e 71 af be 31 7a 21 3e f7 ac 8d 3c
       0.06046917 -0.34266037 0.15769269 0.01729439
000280 8e 8c 98 bc 52 73 9d 3d 64 68 2e 3d b3 f4 51 3e
       -0.01862171 0.07688011 0.042580023 0.20503502
000290 05 b1 7f 3e 86 26 7d be 5d 0b 84 3e 22 00 57 3d
       0.24969871 -0.24721727 0.2578992 0.05249036
0002a0 e3 80 e5 bd 1f bd ea bc 52 74 a3 be 47 d7 ca bd
       -0.11206224 -0.028654633 -0.31924683 -0.09904342
0002b0 2b 34 b2 bd a2 7f fc bd b9 5b 9c bd ec f5 8c be
       -0.087013565 -0.123290315 -0.07634682 -0.27531374
0002c0 c0 00 b0 3e 84 02 4c 3c 18 2f 8a be 6b 35 29 3e
       0.34375572 0.012451772 -0.26989055 0.16524284
0002d0 c3 9d 14 be 70 83 88 be 28 36 64 3e e8 57 fa bd
       -0.14513306 -0.2666278 0.22286284 -0.12223798
0002e0 2e 59 37 be e0 b9 9b 3d 02 76 a2 3e 42 de 9d 3e
       -0.17905113 0.07603812 0.31730658 0.30833632
0002f0 99 f7 02 3d d4 c4 7b be 8a 21 e3 bd b3 2e 85 bd
       0.03197441 -0.24586803 -0.110903814 -0.06503048
000300 9f 25 52 be b2 55 40 3e d5 90 2b bd ff 53 4a 3e
       -0.20522164 0.1878269 -0.04188617 0.19758604
000310 03 a1 33 be aa f7 88 3e ce 5b cc bd 09 d1 2d be
       -0.1754189 0.26751453 -0.09978448 -0.16974272
000320 49 9c 1c 3e 4a 36 2a be 80 ff 90 be 38 6d ac 3e
       0.15293993 -0.16622272 -0.2831993 0.33677077
000330 02 d2 12 3d 88 a6 28 3e a5 e7 61 3e 6d 81 77 3e
       0.03584481 0.16469777 0.22061022 0.24170466
000340 92 fd 8c bd 70 fa 07 3e 78 46 30 3e 02 51 04 be
       -0.06884302 0.13279128 0.17214382 -0.12921527
000350 39 80 17 3d 43 79 69 3e 34 53 c3 3d 10 9f a5 be
       0.036987517 0.22800164 0.09537354 -0.32347918
000360 79 79 95 be 36 1c 22 3e f5 c9 ad bd 03 d5 9d 3e
       -0.2919424 0.15831074 -0.08485786 0.30826578
000370 3a 9d 1f 3c 6e ee a5 3e c4 70 82 3e fa 11 82 be
       0.009742076 0.3240847 0.25476658 -0.2540434
000380 28 06 24 be 5e 3f 9f be de 27 95 3c c7 b3 c1 be
       -0.16017973 -0.31103033 0.018207487 -0.37832472
000390 7c ae 83 3c b6 a3 48 3e 86 00 03 3e fb 65 88 3e
       0.016074412 0.19593701 0.12793168 0.26640305
0003a0 c8 c4 cf bd 8e 20 9b 3e 58 64 3d be 58 ad 04 be
       -0.10144955 0.30298275 -0.1849531 -0.1295675
0003b0 d8 98 02 be 58 c3 2d 3d c0 af a3 3c 66 d2 97 be
       -0.12753618 0.042422622 0.019981265 -0.2965271
0003c0 9a 45 60 3e 5c 46 8c bd 70 aa f7 3c 41 4f 64 be
       0.21901551 -0.068493575 0.030232638 -0.22295858
0003d0 55 f1 98 bc 60 8d a9 3d 5c 21 62 3e d1 17 54 3e
       -0.018669764 0.08278918 0.22083038 0.2071221
0003e0 91 35 96 3d 05 db a7 3d 11 e7 86 3d c1 27 83 3e
       0.07334436 0.081960715 0.06587041 0.25616267
0003f0 5d 3f 7e bd d8 f9 72 bd d7 a5 13 bd c3 57 8b be
       -0.062072147 -0.0593203 -0.03604683 -0.27215394

convs.0.bias f4 [32]
000000 4b 1f 08 bd c0 16 42 bd c1 74 8a be 3c 36 4a bd
       -0.03323297 -0.047384977 -0.270422 -0.04936813
000010 97 ce 3b 3d e1 b6 59 bc cf 95 8e be a6 6d 31 be
       0.045851316 -0.013288231 -0.2784867 -0.17326984
000020 56 6f 8e 3e ea 86 85 3e a8 30 52 be b5 ff 9f 3d
       0.27819318 0.26079494 -0.20526373 0.07812444
000030 19 f6 5a be 94 f3 4c 3c df 4b b9 3d 6f a7 f9 3d
       -0.21382941 0.012509245 0.090476744 0.121901385
000040 4a df 79 3e b1 82 06 bc d7 d8 16 bd 99 23 0e 3e
       0.24401584 -0.00820987 -0.03682789 0.13880767
000050 63 fb 93 bd 1c e6 88 be bf fc dd bd ed e5 87 be
       -0.072256826 -0.2673806 -0.10839223 -0.26542607
000060 e5 d4 cf bd a8 de eb bc 5a a4 80 be 17 d0 37 3e
       -0.10148028 -0.028792694 -0.2512539 0.17950474
000070 d5 31 30 3d dd 42 47 be d9 bb 6f bb 92 e5 f9 3d
       0.043016274 -0.194591 -0.0036580472 0.1220199

convs.3.weight f4 [64, 32, 3, 3]
000000 6a 04 cc 3d a2 32 3b bd 88 b8 10 3e bc 8a 20 3c
       0.099617794 -0.045702584 0.14132893 0.009798702
000010 67 77 93 bd 9f 60 67 3d 5c 7b b8 3c 71 5c 2e 3d
       -0.072005086 0.05648863 0.02251976 0.042568628
000020 60 9a c2 3d c6 ce 5c bd 28 ae f0 bb 32 62 36 bd
       0.09502101 -0.053908132 -0.00734498 -0.04452724
000030 64 35 bf bc 30 ea f3 bb 18 e7 b8 3b 16 2f ac 3c
       -0.023340888 -0.007443689 0.005642783 0.021018546
000040 54 aa 1e bd de 3a 3d bd 67 07 b8 3c f1 10 a6 bb
       -0.038736656 -0.04619872 0.022464467 -0.0050679375
000050 db 98 ae bc 0f 04 4f ba a1 be da bd 11 6b ee bc
       -0.021313122 -0.0007897028 -0.10680891 -0.029103788
000060 a4 e6 85 3d 47 f3 20 3d f0 4f 38 3d fa 70 8d 3e
       0.06538132 0.039294507 0.04499811 0.27625257
000070 20 30 90 3e 33 ab fa 3c 09 aa b1 3d 16 c6 44 3e
       0.28161716 0.030599212 0.0867501 0.19216189
000080 72 aa 48 3d 3a 7c 16 3e f7 4f c1 3d 22 e7 f8 3d
       0.048990674 0.14695826 0.0943908 0.1215346
000090 cb 32 58 bc e2 e7 35 3d 2d dd aa 3d ec ca 12 be
       -0.013195704 0.044410594 0.08342967 -0.14335221
0000a0 2c e7 21 bd bb a2 95 bd 05 1a 02 be 46 64 0a bd
       -0.039527103 -0.07306429 -0.12705238 -0.033787034
0000b0 8e 09 1e 3e 02 50 94 3e 5f 87 c8 3e ff 31 64 3e
       0.15433332 0.2896729 0.3916578 0.22284697
0000c0 a6 20 7a 3e 2c 38 96 3e e9 7e d6 3d 62 ac 81 3e
       0.24426517 0.2933973 0.10473425 0.2532683
0000d0 07 b8 ec 3d 30 4b dc bc 00 8c ff bc 02 6d 21 bd
       0.11558538 -0.026891321 -0.031194687 -0.0394106
0000e0 04 6a 84 bc fe 42 ae bd 30 ee 59 bd 07 1e 03 3d
       -0.016163833 -0.085088715 -0.05320567 0.03201106
0000f0 fc a6 a4 bd 84 12 18 bd 3b 8c a1 bd 04 bd 21 bc
       -0.08039662 -0.037127033 -0.07888075 -0.009871725
000100 1e 6e d9 bc cf 73 50 3d 74 3c 08 3c 4e 7b 95 3c
       -0.026541766 0.050891694 0.008315194 0.018247273
000110 a8 4d b9 bc 52 88 af 3c f0 e7 70 bd a3 2b 17 3d
       -0.022620037 0.021427307 -0.058814943 0.03690685
000120 4e 1c 21 be 06 9b 8e bd b3 dd 37 bd 09 ae 08 be
       -0.15733454 -0.06963162 -0.044889163 -0.13347639
000130 91 9b 05 3d bc 62 73 3d 20 5e f7 bd 4f 06 d6 3b
       0.032619063 0.059420332 -0.120785 0.0065315138
000140 f1 43 ce bd fd 00 89 bc 3e b7 26 3e 15 4c 1c 3e
       -0.100715525 -0.016724104 0.16280839 0.15263398
000150 c8 fb 20 bd 37 a0 a4 3d 0e 85 a8 3d 2e 8e a0 bd
       -0.039302617 0.08038371 0.08228503 -0.078396186
000160 71 29 16 3d 4a 25 b1 3d 6c 96 3b be 1d 53 bc bd
       0.036660615 0.086496904 -0.183191 -0.0919554
000170 47 0f ed bc 73 72 cd bc f6 c4 63 bd 42 3d f6 bb
       -0.028937949 -0.025078988 -0.05560776 -0.0075146267
000180 0c c8 7d 3d 59 6d 3a 3d e8 16 4b bd ea 27 e1 3d
       0.061958358 0.04551444 -0.049582392 0.10993941
000190 80 0b a1 3d 6e 50 7c 3d 8e 14 ad 3d 0c a3 00 bd
       0.078635216 0.06160014 0.08451186 -0.031405494
0001a0 e3 85 ec 3c 3b f9 a7 3d a8 3e f6 3c b5 a1 98 3d
       0.028872436 0.08201834 0.030059174 0.07452718
0001b0 f4 ef c8 bc c3 9d 9b bd e4 6a 5e 3d a0 70 7a bc
       -0.024528481 -0.0759845 0.054301158 -0.015285641
0001c0 bc 40 bd bc 3c 51 3c 3d dc 31 39 ba 86 5e cb bc
       -0.023102157 0.04597591 -0.00070646196 -0.024825346
0001d0 52 b7 5d bc f7 fd aa 3c f2 4a f2 3c 76 ed 7b bc
       -0.0135324765 0.020873053 0.029576752 -0.015376439
0001e0 a1 fa 50 3d 88 09 98 bc 7b 9c 28 bd 01 6b 14 3d
       0.05102027 -0.018559232 -0.041164856 0.03623486
0001f0 37 23 0f 3d fd 0b 91 3d 13 af 15 3d 60 09 a2 3d
       0.034945693 0.07082365 0.036543917 0.079119444
000200 fe 6d 27 ba 3a 6b f7 bd e9 45 ce bd 06 57 1d be
       -0.00063869345 -0.12080999 -0.10071928 -0.15365228
000210 a5 17 ac bd 45 26 be bd 4f e0 4c bd d5 73 83 3d
       -0.08402947 -0.09284643 -0.050018605 0.064185776
000220 6a 2d 71 3d a7 0c 65 bb 2a b8 82 bc d1 35 1d bd
       0.0588812 -0.0034950168 -0.015956957 -0.0383814
000230 50 2e 72 bd 4e 61 a6 bc 0e 4b 66 3d 0f 6b 3b 3d
       -0.0591262 -0.02031007 0.05622392 0.045756396
000240 b1 c1 d9 3d 86 90 05 3e 1a c6 2d 3d 56 c7 23 bd
       0.10632647 0.13043413 0.042425252 -0.039985023
000250 5b dd 83 bc d0 82 83 b7 53 d1 ef bc 9f c8 27 bd
       -0.016096761 -1.5677331e-05 -0.029274618 -0.04096281
000260 93 84 6b bd 45 dd 56 3e 77 e1 10 3e 06 06 a8 3e
       -0.05749948 0.20982845 0.14148508 0.32817096
000270 7b 7b 4d 3e 0c 8d 3c 3e 79 78 54 3e 93 3a 9a 3d
       0.20066635 0.1841318 0.20749082 0.075307034
000280 1e 58 ba 3d 38 3c 2b 3e 6a 15 0b be 8c 31 54 be
       0.09098838 0.1672219 -0.13582388 -0.20722026
000290 20 35 00 be d0 61 08 bd 61 54 28 bd ba 11 37 3d
       -0.12520266 -0.033296406 -0.041096095 0.04469464
0002a0 20 7e 2a 3e f5 7e 9c 3d 42 ce 27 3e 57 90 02 3e
       0.16649675 0.07641403 0.16387275 0.12750374
0002b0 f2 ed 31 3e 1e b2 0f 3e d4 6f 15 be 22 9e e4 bd
       0.17375925 0.1403279 -0.1459344 -0.11162974
0002c0 16 4b 8d bd a7 5c 1c be 02 5e 06 be fb de f7 bd
       -0.06899087 -0.15269719 -0.13121799 -0.12103077
0002d0 20 dd 6e bd 53 0e 6f bd 0a 22 82 3d 68 86 23 3d
       -0.05831635 -0.05836327 0.06354149 0.0399231
0002e0 e1 41 83 3c ee dc 9f 3c 69 e4 0b 3d 53 63 30 bd
       0.016022624 0.019514527 0.034153376 -0.043063473
0002f0 aa 18 06 bd a4 58 2e 3d 01 fa 9d bc 53 a2 9d 3c
       -0.032738365 0.042565003 -0.01928425 0.019242441
000300 04 b8 cf 3c 52 58 da 3c b0 d6 39 3c 2d 05 1a bd
       0.0253563 0.026653443 0.011342689 -0.037602592
000310 1c 2b f9 bc be e0 18 3d c2 a4 29 3d 93 aa 28 3e
       -0.030416064 0.037323706 0.04141689 0.16471319
000320 22 b2 4a 3e f8 7d 2f bd 47 df a5 3d 78 6a 23 3e
       0.19794515 -0.042844743 0.080992274 0.15958583
000330 e9 94 c2 bd 0c ed 96 3b 71 4d b4 3d 84 41 91 ba
       -0.095010586 0.004605895 0.08803833 -0.0011082147
000340 07 48 55 3d b5 6c 9d 3d 6b ea 3f 3d e7 99 e6 bd
       0.052070644 0.0768675 0.046854418 -0.11259823
000350 fc 91 bf bd 14 2f 04 bd 17 e7 11 be 73 43 6a be
       -0.09354016 -0.03227146 -0.1424831 -0.22877292
000360 e9 a1 df 3c 14 a3 58 bd 9c 7b 61 bc 2b 36 47 3c
       0.027298884 -0.0528899 -0.013762381 0.012158911
000370 df cb 32 bd cb 21 76 bc aa 03 47 3e 65 f1 0a 3e
       -0.043651458 -0.015022705 0.19434991 0.13568647
000380 52 d9 92 3d 0b 85 a0 3c d1 db b8 3c e9 89 ce 3c
       0.07170357 0.01959469 0.022565754 0.025212245
000390 bf 82 0f 3d 49 32 9d bd f5 95 9b bc 80 e1 d3 3d
       0.0350368 -0.07675607 -0.018992404 0.10345745
0003a0 95 82 ca 3c 07 9d a3 3d 67 73 20 3d 55 fe 5f 3d
       0.02472047 0.07988935 0.039172556 0.05468591
0003b0 0c f1 29 bc 9e d6 94 3c 75 53 0e 3d d6 c5 f2 3c
       -0.010372411 0.018168744 0.03474756 0.029635351
0003c0 8b 00 58 3d 70 93 71 bb aa 00 ae 3c 2d 83 27 bd
       0.052734893 -0.0036861561 0.021240551 -0.040896583
0003d0 2a da 90 bb b3 b1 d0 bc 01 3f 41 bc f9 a1 0a bd
       -0.0044205384 -0.025475359 -0.011794806 -0.033845875
0003e0 cd ae 1c 3c e9 43 b5 3c 67 ee 29 bd 75 55 d2 bc
       0.00956316 0.022127109 -0.041487124 -0.025675515
0003f0 87 7d 8b 3e 95 c1 00 3e be 73 51 3e eb 8f 3a 3d
       0.27244207 0.12573846 0.20454308 0.045547407

convs.3.bias f4 [64]
000000 b6 c4 cb bc b8 63 73 ba c5 2f 74 3d 55 7c 36 bd
       -0.024874073 -0.00092845736 0.05961587 -0.044552166
000010 72 83 89 3d e5 ac 82 38 a4 7d 86 bc a9 0f 2f 3d
       0.06714524 6.231087e-05 -0.016417332 0.042739544
000020 ea 50 8d 3c 58 da 55 bd 2d a9 67 3c 75 65 6d 3d
       0.017250497 -0.052210182 0.014139456 0.057958085
000030 96 3a 45 3c 1e 02 3f bd d0 cb 26 bc 9c 28 d1 3b
       0.012037894 -0.04663288 -0.010180429 0.006383015
000040 85 72 43 3c 6d 24 5e bc 08 3e 88 bb 38 3f 15 bd
       0.011929159 -0.013558489 -0.0041577853 -0.036437243
000050 95 cc 76 bd e0 3b 15 3d a6 16 03 3d f2 43 4a bd
       -0.0602537 0.036434054 0.03200402 -0.049381204
000060 42 3d 34 3d 21 48 08 3d 09 2e 3a bd 49 60 d7 3c
       0.044003733 0.033271912 -0.04545406 0.02629103
000070 51 31 52 bd a3 6a e0 bc 41 f2 ad bc a2 5d d7 bc
       -0.051316563 -0.027394598 -0.02123368 -0.026289765
000080 39 1c 78 bd a6 b0 18 bd e3 84 52 3d 49 6e 08 bc
       -0.06057379 -0.03727784 0.051396262 -0.008327075
000090 4e e5 3b 3c b8 5a f5 3c b5 fe 44 bc c5 f2 44 3d
       0.011468245 0.029950485 -0.0120236175 0.048083086
0000a0 97 9c 02 bc 2b 09 b9 bc be 2b 14 bc 36 c3 00 bd
       -0.007971904 -0.02258738 -0.009043632 -0.031436168
0000b0 61 0b db bc c7 ad 09 bd 48 06 0b bd 72 0a b3 3c
       -0.026738824 -0.033612993 -0.033941537 0.021855567
0000c0 69 24 ba bc d7 d6 92 bc cc e4 97 bd 13 15 af bb
       -0.02272244 -0.01792471 -0.074166864 -0.0053430884
0000d0 75 05 91 3b 59 e3 b8 3c 4a 86 f7 3c 79 3f a6 bc
       0.0044256994 0.022569345 0.030215401 -0.020293938
0000e0 9a 74 22 3d 42 f4 3b 3d 99 89 46 3d bf 0b cd 3c
       0.03966198 0.04588724 0.048471067 0.025030015
0000f0 7f 19 84 bd f1 95 b9 3c 61 38 fd 3c aa 6d 08 3d
       -0.064501755 0.022654505 0.030910673 0.03330771

fc1.weight f4 [128, 1024]
000000 c0 d4 3a bc be 68 0e bd a9 21 64 3c b0 48 9b bc
       -0.011403263 -0.03476786 0.013924041 -0.018955559
000010 f8 f3 93 bb b5 b2 92 3c 50 4e 50 3c 97 5c 0f bd
       -0.0045151673 0.01790748 0.012713984 -0.03500041
000020 c6 2a cb 3c 1b 21 9f 3c 75 f6 3e bc a4 26 47 bb
       0.02480067 0.019424966 -0.01165544 -0.0030388022
000030 2c 06 7d 3c 14 ec 44 3c 48 c0 10 bc f2 b5 92 3c
       0.015443366 0.012019176 -0.008834906 0.017909024
000040 b0 75 40 bc da 91 a9 bc 1b 0b a5 bc e8 10 cf 3c
       -0.011746809 -0.02069943 -0.020146897 0.025276616
000050 6c 19 08 bd d6 86 96 bc aa 98 74 3c 06 b5 59 bc
       -0.03322737 -0.018374842 0.014928976 -0.013287788
000060 0e 29 fa bc 5b 34 c4 3c 20 62 38 3c 8d ae 54 3c
       -0.030537155 0.023950746 0.011253864 0.012981069
000070 70 d2 5e 3c 83 4c de bc f3 c3 a8 3c 16 53 12 bd
       0.013599977 -0.027136093 0.020601248 -0.03572377
000080 d4 22 a2 bc 90 af 86 bc 63 fe a3 bc 25 15 0e bb
       -0.019791998 -0.016441137 -0.020018762 -0.0021680084
000090 c2 8d d6 bc ca ab 03 bd 78 04 24 ba 29 5e 1c bb
       -0.026190642 -0.032146253 -0.00062567694 -0.0023859835
0000a0 8b 6e c8 bc 83 cb 00 bc 7f b9 c0 bc 5a c8 b4 3c
       -0.024466773 -0.007861021 -0.023525951 0.022068191
0000b0 89 61 a4 3c 5b b1 cd bc 6c c6 09 3b 9e eb 9a 3c
       0.02006604 -0.025108984 0.002102281 0.01891118
0000c0 95 a2 cb bc 39 91 ad 3a 4d 5c 6d bc 87 f4 0b bd
       -0.024857799 0.0013242132 -0.014487338 -0.034168746
0000d0 3b ed 7b 3b 16 34 99 3c d8 d1 6b bb a5 1a 16 bc
       0.003844096 0.018701594 -0.003598323 -0.009161626
0000e0 00 80 18 bc 58 46 d1 3c 45 5d 29 3b a3 d7 65 3c
       -0.009307861 0.025546238 0.0025842946 0.014028463
0000f0 af aa 44 3b 61 e2 9c bc 2a 91 75 3c 1c 1f 93 bb
       0.0030008962 -0.019150915 0.014988223 -0.0044897925
000100 c0 fb 47 3c 0a a8 85 bc 10 52 f2 bb 88 75 88 3b
       0.012206018 -0.016315479 -0.0073950365 0.0041644014
000110 58 6d 82 3c 86 cd ef bc 5e cd a1 3c 80 45 d7 3b
       0.01592128 -0.029272806 0.019751247 0.0065695643
000120 8c 40 25 3c ae 92 a6 bc fc b6 76 3c 34 c7 2c 3c
       0.01008619 -0.020333614 0.015058275 0.010545541
000130 e0 bf 3e 3c 04 44 15 bc 02 66 a6 bc 9c 09 00 bc
       0.011642426 -0.0091104545 -0.020312313 -0.007814791
000140 2c c8 4c 3c b8 89 83 3c 38 16 fd bb e4 94 1d bc
       0.012498897 0.01605688 -0.007723596 -0.009618018
000150 60 25 8a 3a e4 59 6e bc 30 c6 6e bb 6a 50 e6 bc
       0.0010539703 -0.014547799 -0.0036434047 -0.028114516
000160 1c 63 78 3c 98 72 0b 3c e8 cc 3a 3c 60 05 98 bc
       0.015160348 0.008511208 0.0114013925 -0.01855725
000170 44 91 00 bc 08 54 ae 3b e6 a8 a5 bc 16 cf ac bc
       -0.007847134 0.005320076 -0.020222139 -0.02109484
000180 f6 14 83 bc e0 5b bd 3c 75 ec af 3b 53 a5 0a 3c
       -0.016001206 0.023115098 0.005368764 0.008462268
000190 fb 9b 01 bd f1 75 9e 3a 57 0f a5 3b ab aa 8e bb
       -0.031642895 0.0012089593 0.005037229 -0.0043538413
0001a0 42 9a 67 3b 67 13 b8 3c e1 b2 45 bb 72 8f 6e 3c
       0.0035339748 0.02247019 -0.0030166435 0.014560567
0001b0 65 68 f9 bc 9b fc 20 bc 1f cc e1 bc 8c b5 63 3b
       -0.030445287 -0.009825851 -0.027563153 0.0034745662
0001c0 54 d7 16 bc b3 51 4f 3c 6a 6a f0 bc 1c 7c c9 3c
       -0.009206612 0.012653756 -0.029347617 0.024595313
0001d0 ad 5d 13 bd 10 70 88 bb 3f 78 d0 bc 01 c2 92 3c
       -0.035978008 -0.0041637495 -0.025447963 0.017914774
0001e0 7e 34 b2 bc ab fe 1d 3c 00 f1 4a bc ec 53 ca 3a
       -0.021753546 0.009643237 -0.01238656 0.0015436388
0001f0 1d ba f2 3a 01 a5 0a bc 72 bc 07 38 98 e2 e8 3b
       0.0018518601 -0.008462192 3.236201e-05 0.00710709
000200 9b ed a5 bc 01 66 d6 bc 9d 67 a7 bc f8 08 c2 bb
       -0.0202549 -0.026171686 -0.020435149 -0.0059214793
000210 ab d8 dc bb 4c df 78 3c 4b ba 1a bc bf 7e 55 3c
       -0.006739696 0.015189957 -0.00944383 0.013030707
000220 5f cf 68 3b 3f 30 a4 bc ab d6 a1 bc 43 0e c2 bc
       0.0035523993 -0.020042537 -0.019755682 -0.023688441
000230 54 4a ec 3b e9 99 c6 3c 83 74 f6 3c 30 bf ac 3c
       0.007211009 0.024243312 0.030084854 0.021087259
000240 af 65 93 3b 30 37 97 3c 36 97 ad 3c 6e f4 8d 3c
       0.0044982056 0.018458933 0.021190267 0.017328467
000250 7a 41 ce ba da b0 a2 3c 8c 6c fa b9 98 70 26 bc
       -0.0015736066 0.01985972 -0.0004776459 -0.01015868
000260 0b f8 c4 bc 31 bf 27 bc 0d fc fe ba 63 95 26 bc
       -0.024044057 -0.010238455 -0.0019453779 -0.0101674525
000270 ed 15 a7 3b 1d 02 1e bc af d4 c8 3c 7f ec fa 3b
       0.0050990493 -0.0096440585 0.024515478 0.007657587
000280 a4 1b b5 3c d6 9a bb bc 32 a1 e7 bc ea b7 fc bc
       0.022107907 -0.02290098 -0.028275106 -0.030849416
000290 3d fb bc 3c ee b1 63 3b e5 63 8e bb c1 77 f9 3b
       0.023069018 0.0034743506 -0.0043454044 0.0076131527
0002a0 44 f8 90 bc f7 01 9e 3c b8 b2 3a 3b 11 bd dd ba
       -0.017696507 0.019288046 0.0028487872 -0.0016917308
0002b0 b5 9b 10 bd 7b c5 66 bc 7c 2c 6e bb 96 b0 3f 3a
       -0.035304744 -0.014085169 -0.0036342433 0.0007312385
0002c0 2c fb 13 bd 07 1a dc bc a4 54 0a 3c 12 59 4d 3c
       -0.036128208 -0.02686788 0.008443031 0.012533443
0002d0 67 e0 9c bb ec de cb bc 25 b8 96 ba da b8 ca 3c
       -0.004787493 -0.02488657 -0.0011498971 0.024746347
0002e0 ec aa 3b bc b0 25 b1 bc e0 5a 9a 3c f6 25 dc bc
       -0.011454325 -0.021624416 0.01884216 -0.02687357
0002f0 b1 9f bf bc 95 1f aa 38 2c f6 6e 3a 90 e7 df bc
       -0.023391576 8.112114e-05 0.0009115662 -0.027332097
000300 cc b6 5f 3c e0 07 f0 3b 9e 1f e5 bc 78 84 84 bc
       0.013654422 0.0073251575 -0.027969178 -0.016176447
000310 40 84 d3 3a 78 76 df bb d8 ff dd bc a8 12 e7 3b
       0.0016137436 -0.0068195425 -0.027099535 0.0070517845
000320 34 fe 4d bc d8 e6 de 3b 98 34 ab 3b 08 86 83 bb
       -0.012572814 0.006802421 0.0052247755 -0.0040137805
000330 1c 10 7b bc e0 6e 8e 3b 66 c8 96 bc 18 76 c7 bb
       -0.015323665 0.0043467134 -0.018406104 -0.006087076
000340 4c b4 bd bc 78 9b 8f bb ba 72 8d 3c c4 9c 7f bc
       -0.023157261 -0.004382547 0.01726662 -0.015601341
000350 a4 d2 06 3c f0 f9 36 bb 36 28 a8 bc e0 07 72 3b
       0.008228932 -0.002791997 -0.020526987 0.0036930963
000360 20 ce 3b bc 90 47 84 bc 84 31 ba 3c e0 c5 57 3c
       -0.011462718 -0.016147405 0.022728689 0.013169736
000370 2c ed cd 3c e4 92 1f 3c 7e 4b d3 3c 6e 7e 89 bc
       0.025137506 0.009739611 0.025792833 -0.01678392
000380 a9 53 59 3c 33 44 ba 3b 32 76 b4 bc 89 dc 08 3c
       0.013264575 0.0056843995 -0.022029016 0.008353361
000390 ca 4f 19 3c 1e dd 0c 3b c3 4b 21 bb e8 98 4f 3c
       0.009357402 0.00214941 -0.0024611808 0.012670733
0003a0 71 86 7a 3c 31 73 4a 3c f1 7a 83 3c a2 2b 60 ba
       0.015290842 0.012356565 0.016049834 -0.00085514237
0003b0 f5 f2 7f bb ef b2 ea bc 1c 8c 11 3c 0e 28 32 39
       -0.0039054726 -0.028649775 0.008883502 0.00016990324
0003c0 3b 90 e7 3b 28 f2 50 bc 60 d8 ab bc 06 b8 a5 bc
       0.007066754 -0.012753047 -0.0209772 -0.02022935
0003d0 2e 6f a8 3c 5c 1e 9f bc 89 36 a9 bc 71 70 2f 3c
       0.020560827 -0.019423656 -0.020655887 0.01070796
0003e0 85 6b 7c 3c e4 c3 8a bc a5 3e 97 bb f3 f7 93 3b
       0.015406494 -0.016939111 -0.004615622 0.004515642
0003f0 95 1f db bc e3 9b 30 3c 7d a1 c7 bb 06 cd 99 3c
       -0.026748458 0.010779354 -0.006092249 0.01877452

fc1.bias f4 [128]
000000 54 61 c5 3c 5b cc a2 bc 48 cd b2 bc 3a df ae 3d
       0.024094261 -0.019872835 -0.021826401 0.08538671
000010 00 6d a6 bb f2 b5 6f bc b1 81 f9 bc fc 24 03 bd
       -0.005078912 -0.0146307815 -0.03045735 -0.032017693
000020 fc 25 be 3a 4e dd a0 3b 42 cd 11 bd 8c c7 6b bc
       0.001450717 0.004909194 -0.03559614 -0.014390837
000030 48 cb c6 3c d1 71 93 3d 09 7a 4b bd 2d c8 3c bd
       0.024266854 0.07199443 -0.04967693 -0.04608934
000040 85 0a c5 3b c8 15 4f bb c1 bd 38 bd a4 af b7 3b
       0.006013217 -0.0031598676 -0.04510284 0.005605655
000050 32 36 ea bc 48 f7 04 bd 18 d7 95 3d 79 8e 00 bd
       -0.028590295 -0.03246239 0.073164165 -0.031385873
000060 63 65 11 3b bf 08 64 bc 4f b0 3f bc 26 6f 1d bd
       0.0022185675 -0.013918101 -0.01169975 -0.038436078
000070 b4 21 85 3d 05 a4 87 bb 68 8e cc bc dc 00 cb bc
       0.06500569 -0.0041394257 -0.024970248 -0.024780683
000080 90 e7 a4 bc ca 20 18 bd 0a b3 09 3d a2 60 39 3c
       -0.020129949 -0.037140645 0.03361801 0.011314543
000090 b5 87 cf bc 85 b6 69 bd 5c f3 cd bc 53 5b 40 bc
       -0.025333265 -0.05705883 -0.025140457 -0.011740523
0000a0 f3 6e e0 bc 26 c6 09 bc db 97 17 bd 85 1b 8a 3b
       -0.027396655 -0.008409059 -0.037010055 0.0042147064
0000b0 8c 41 a1 3d e1 cc f2 bc 6a fb 10 3b b9 90 17 3c
       0.0787383 -0.02963871 0.002212251 0.009250813
0000c0 ba 67 cf 3c aa 19 4b 3c 30 00 5a bd e0 b4 82 bc
       0.025318015 0.0123962555 -0.053222835 -0.015955389
0000d0 1b 0b 46 bd f0 87 5f 3d 6c 70 07 3c 43 63 0e bd
       -0.048350435 0.054573 0.00826655 -0.034762632
0000e0 19 01 9a bc 8b 5d a3 bc c2 35 6e 3d 6d 51 b0 3d
       -0.018799352 -0.019942066 0.058156736 0.08609281
0000f0 b3 41 91 3c 9b eb 3c 3b 8f bd 60 bd 7e 5f 15 bd
       0.017731523 0.0028826955 -0.054868277 -0.03646802
000100 53 39 35 bc 2c 44 94 bc 39 bb d2 bb c9 08 ea bc
       -0.01106103 -0.018098913 -0.00643101 -0.028568642
000110 0f 53 83 3d 33 52 3a 3c 55 27 c3 bc 28 c8 3c bc
       0.064123265 0.011372137 -0.023822466 -0.01152233
000120 30 58 93 3d 1d 03 77 bc 29 ef 63 bc f1 76 70 3b
       0.07194555 -0.015076426 -0.013912001 0.0036691988
000130 73 57 90 bc a4 3d d6 3b 0f 97 b4 bc 5b 58 0b bd
       -0.017619824 0.00653811 -0.022044687 -0.03401981
000140 6a 17 f9 bb af 56 55 3d fa 6d 88 3d 81 b2 92 bc
       -0.007601668 0.05208462 0.06661601 -0.017907383
000150 cd 5e 37 3c ba 4b f4 3b ad fe a6 3d 40 56 ca 3c
       0.011192036 0.0074553164 0.08154044 0.02469933
000160 19 ec c6 bc 1a 86 70 ba 38 64 9e 3d ba 47 15 3d
       -0.024282502 -0.0009175256 0.07733959 0.036445357
000170 da fa d2 bc 5a 66 2d bd 86 7b 00 3d 0e c4 56 bc
       -0.025754381 -0.04233394 0.0313678 -0.0131082665
000180 67 c9 55 bb 57 b7 14 bd 64 35 92 3b 83 dc c4 ba
       -0.0032621266 -0.03630766 0.004461931 -0.0015019331
000190 b6 5e be bc 37 2a cf bc ff 65 11 3d 58 47 3f bd
       -0.023238521 -0.025288684 0.03549766 -0.046698898
0001a0 b7 ad 56 bd 52 86 64 3a 4a 7f 33 3b 82 c4 4b bd
       -0.05241176 0.0008717525 0.0027389103 -0.04974795
0001b0 af a5 bb 3c 14 d1 1d bc 26 76 c8 bc 24 f0 dc bc
       0.022906153 -0.009632368 -0.0244704 -0.026969977
0001c0 57 04 dd bc 3a eb 16 bd 7f 3e 8e 3c fc fd d2 bb
       -0.026979608 -0.036845423 0.017363785 -0.0064389687
0001d0 04 11 83 bc 69 72 10 bd 6d c8 d8 bc 19 19 3e bd
       -0.015999325 -0.03526536 -0.026462758 -0.046410654
0001e0 d4 92 c8 ba c6 13 ab bc 82 bb c5 3c bf 10 ec bc
       -0.0015302547 -0.020883452 0.024137262 -0.028816579
0001f0 0c f9 9b bc 2f 85 09 3d 14 37 86 bb 73 7a 23 bd
       -0.019039653 0.03357428 -0.0040959213 -0.0399117

fc2.weight f4 [2, 128]
000000 3f 0e 21 bd 81 d6 a7 3d aa 62 40 bc 5d a4 b4 3d
       -0.039320227 0.0819521 -0.011742273 0.08820412
000010 de b1 68 3d d7 f1 27 bc f0 85 01 bd 66 fe 5e 3d
       0.056810252 -0.01025053 -0.031621873 0.054441832
000020 f1 b8 36 be 0c b1 9c 3c 45 4c f1 bc 1a d9 02 be
       -0.17843987 0.019127391 -0.029455313 -0.1277813
000030 c7 c8 8e bd da 68 bd 3d 5a 38 8c bd 20 f7 33 bd
       -0.06971889 0.092485145 -0.06846686 -0.04393685
000040 fe 2a d8 bc f6 ec 0d 3d 78 f3 53 be 48 9f 4b 3d
       -0.026387688 0.03464981 -0.20698345 0.04971245
000050 e1 32 b1 bd d5 8d e7 3c a8 77 c0 3d 8f 47 40 3d
       -0.086522825 0.028265873 0.093978226 0.046943244
000060 e8 dc 98 bd 48 7c 07 3d 29 2a 18 be 55 3d 8a bd
       -0.074640095 0.03307751 -0.14859833 -0.067499794
000070 76 db ae 3d 9c e6 83 bd b5 14 16 be d3 09 72 bb
       0.085379526 -0.064404696 -0.14656337 -0.0036932125
000080 d6 9e 86 bd f4 c2 52 3d 7e 6b c8 3d e6 c7 83 3d
       -0.06573264 0.051455453 0.097861275 0.06434612
000090 63 e0 fe bd 68 3d 8a be 54 2f 56 3c ac e6 2a be
       -0.12445142 -0.26999974 0.013072807 -0.16689557
0000a0 17 41 84 3d fe 18 38 be d6 46 03 be 70 15 03 3c
       0.064577274 -0.17978284 -0.1281999 0.008000717
0000b0 4f 34 bd 3d 17 7e 75 bc e1 9c 3d bd e2 d5 97 bd
       0.09238493 -0.014983675 -0.04629219 -0.07413842
0000c0 0d 2d 38 bd e9 44 d5 3b a6 94 7e bd a6 af 8d 3d
       -0.04496484 0.006508459 -0.06215348 0.06918268
0000d0 83 55 e8 bd bf d3 89 3d 68 e0 09 bc 5d 61 83 3d
       -0.11344435 0.067298405 -0.008415319 0.06415055
0000e0 4c f0 be bd 8f 98 d4 3c ff 83 04 3e a9 f7 c1 3d
       -0.09323177 0.025951652 0.12940978 0.094710656
0000f0 7e 15 81 3d 68 e0 c1 bd 05 a6 e3 bd e3 d4 1f bd
       0.063029274 -0.0946663 -0.1111565 -0.039021384
000100 a6 1e 41 3d 39 b5 97 bd af e6 86 3d a0 01 30 be
       0.04714837 -0.07407612 0.06586968 -0.1718812
000110 d9 81 10 3e ff 56 1f 3c 45 61 45 3d 26 30 ea bd
       0.14112033 0.009725331 0.048188467 -0.11434965
000120 f5 75 a8 3d a3 01 13 be 75 e6 11 3c 8f 03 8c 3d
       0.082256235 -0.14356093 0.008905043 0.06836616
000130 a3 4b 61 3d 0e 11 53 bb a9 66 20 be a0 5b 04 bd
       0.055003773 -0.003220621 -0.15664162 -0.032313943
000140 c4 92 70 ba 45 0e 05 3e a7 cb a4 3d e1 9e 37 be
       -0.0009177143 0.12993725 0.08046656 -0.17931701
000150 e0 7b a4 3d 6f 2a 53 bc e0 c7 1a 3d 18 6a 8d 3d
       0.0803144 -0.012888535 0.037788272 0.069050014
000160 06 94 86 bd f0 27 7f 3c aa 15 89 3d 35 a3 f3 3d
       -0.06571202 0.015573487 0.06693585 0.11896364
000170 e5 95 f9 bd b3 b6 83 bd d8 14 08 3e 1b 5c 8a 3d
       -0.12186793 -0.064313315 0.13289201 0.06755849
000180 a3 f1 db bd 09 a2 1e be 1b af a8 bd 67 d0 31 bd
       -0.10739448 -0.15491499 -0.08236524 -0.04341164
000190 91 17 13 bd b0 eb 35 be 0e dd 92 3d af a5 d0 bd
       -0.035911147 -0.17765689 0.07171069 -0.10187852
0001a0 fb 5c 0b be 54 34 40 bd 8d a7 c2 bd 6a ca 55 bd
       -0.13609688 -0.046924904 -0.09504614 -0.05219499
0001b0 29 81 a4 3c 53 61 95 3c 00 84 83 bb 24 53 08 be
       0.02008112 0.018234884 -0.0040135384 -0.13312966
0001c0 63 fa 21 bd e1 a0 c7 bd 01 13 07 b9 99 ce 64 3d
       -0.039545428 -0.09747482 -0.00012881683 0.05586109
0001d0 b5 37 0a be d4 dc 83 3d 51 3f 7f 3d cc 26 de bd
       -0.13497813 0.06438604 0.062316243 -0.10847244
0001e0 b9 28 1e be 53 4d d1 bd f7 aa 9c 3d bb 80 0d 3d
       -0.15445222 -0.102198265 0.076497965 0.034546595
0001f0 3d 96 6d bd f6 59 0b 3e f1 d0 f7 bd 6c 15 a9 be
       -0.058004607 0.13608536 -0.12100399 -0.33024156
000200 7b f3 15 bd 77 e9 ac 3d 69 b1 a6 bc ed 38 83 bd
       -0.036609154 0.084429674 -0.020348268 -0.06407342
000210 d6 dd 89 3c c8 ab 4d 3a d1 f6 4c 3d 68 ef a6 3c
       0.016829412 0.0007845727 0.05004007 0.02037783
000220 58 20 8c 3d 35 1e fd bc ec c0 21 bd 61 54 ff 3d
       0.068421066 -0.030898193 -0.039490625 0.12467266
000230 e9 9a 0f 3d 92 6d 93 bd 26 fb 10 3e 6b 9c 4c 3e
       0.035059843 -0.07198633 0.14158306 0.19981544
000240 6a a3 28 bc 2a eb 8c bd 5b 36 14 3e 7c 0d 08 bd
       -0.010292867 -0.068807915 0.1447386 -0.033215985
000250 c1 aa 03 3e ed 42 19 bd 8b ac bb bd 5a f5 2e bc
       0.12858106 -0.03741734 -0.09163769 -0.010678614
000260 ba 01 0a 3e 02 c0 31 3d 8c 65 55 3d 93 5b 55 3e
       0.13477221 0.043396004 0.052098796 0.20835714
000270 df 0c 04 be 19 c6 2e 3e 2c 2e a5 3d 97 a2 80 bd
       -0.12895535 0.17067756 0.08065447 -0.062810116
000280 fa 0c 08 3e b0 a0 69 bd 52 ca b0 bd 01 07 0f 3d
       0.132862 -0.05703801 -0.086323395 0.03491879
000290 78 05 c9 3d 79 3c cb 3d 93 ba 0e 3c b1 bf df 3d
       0.09815496 0.099236436 0.008711475 0.10925234
0002a0 51 37 9f bd 98 aa 54 3d e7 a6 07 3e 58 9c c6 bc
       -0.07774223 0.051920503 0.13247262 -0.024244472
0002b0 37 74 f5 bd 01 77 ab 3c 40 fa 5c 3d 83 49 f0 3d
       -0.11985057 0.020930769 0.053949594 0.11732771
0002c0 38 2f 70 bd 7e 04 af b7 37 20 62 3e 16 c3 8c bd
       -0.05863878 -2.0863718e-05 0.22082601 -0.06873147
0002d0 0d 96 12 3e 14 42 10 be de 1f 29 bd 5c 58 2e 3d
       0.14315052 -0.14087707 -0.041290157 0.042564735
0002e0 8d 4e 83 3d a9 86 8e bd d6 e1 0b be 98 1b e4 bd
       0.06411467 -0.06959278 -0.13660368 -0.111380756
0002f0 32 4b 8b bd d9 9f 63 3d 83 3d cc 3d c6 6a 6a bd
       -0.06801452 0.055572364 0.0997267 -0.057230733
000300 79 84 aa 3c 49 c3 30 3e 1a 56 54 3d 5a d4 0a 3e
       0.020815121 0.17261995 0.051839925 0.13557568
000310 cb 61 b5 bd 2e c8 e6 bc 79 da bd 3c 20 4d 14 3e
       -0.08856543 -0.028171625 0.023175465 0.14482546
000320 4a 17 8b bd 70 93 f6 3d 0d cb 0b bd d4 ea 30 bd
       -0.067915514 0.1203984 -0.03412919 -0.0431927
000330 45 c2 18 3d bd a1 95 bd 04 9a 1b 3e aa 37 4e 3e
       0.037294645 -0.0730624 0.15195471 0.20138422
000340 f8 26 c8 bc 50 e6 08 bd 72 9e 5c 3c fe 48 83 3d
       -0.024432644 -0.033422768 0.013465511 0.064104065
000350 0d fd 81 bd 9e 4e 9a bb 6e 4f e4 bd 32 ee ea bc
       -0.06347094 -0.004709079 -0.111479625 -0.028678034
000360 55 68 2b 3e 7b 5d 6f bd 37 3c c5 bd 5c af a8 bd
       0.16739018 -0.05843876 -0.09630626 -0.08236572
000370 38 57 11 3e 73 f2 19 3e c2 f4 8a 3c c5 12 8c 3d
       0.14193428 0.15033893 0.016962413 0.068395175
000380 68 7f 0e 3e 7c 79 b9 3d 06 16 85 3d 94 c9 78 3d
       0.13915789 0.090563744 0.06498341 0.060739115
000390 5d e0 54 3e 10 d6 2b 3e 30 c5 1b be a5 43 85 3d
       0.20788713 0.16780877 -0.1521194 0.06507043
0003a0 1b 39 2d 3d 5b b5 3c 3e c3 af 07 3e db ce c9 3d
       0.04229079 0.18428557 0.13250642 0.09853908
0003b0 4a a3 45 bc 6b 14 64 bc a7 f2 71 bd 9f 92 14 3e
       -0.012062857 -0.013920884 -0.059069302 0.14509057
0003c0 5a ef 31 3d 0f 9c 1e 3e 50 5b 44 38 ff a8 60 3d
       0.043441154 0.15489219 4.6815083e-05 0.054848667
0003d0 a8 aa b8 3d 3f e0 7a 3d 22 47 1c bd cb a8 c6 3d
       0.09016925 0.061249014 -0.038153775 0.097001635
0003e0 0d 6d 2f 3d 34 bc 65 3d aa 1d 49 bd ef ef 1d 3d
       0.04282861 0.056087688 -0.049100555 0.038558897
0003f0 69 58 63 3d 8f 5f 0b be 60 7c cd 3d df 25 9b 3e
       0.055504236 -0.13610671 0.10033488 0.3030233

fc2.bias f4 [2]
000000 3a 7b ff 3d ff 5b 03 be
       0.124746755 -0.12828062
